…
[2022-05-07 17:28:27] scheduler_args:
[2022-05-07 17:28:27]   factor: 0.1
[2022-05-07 17:28:27]   patience: 3
[2022-05-07 17:28:27] 
[2022-05-07 17:28:27] Running on device cuda
[2022-05-07 17:28:32] AdamW (
[2022-05-07 17:28:32] Parameter Group 0
[2022-05-07 17:28:32]     amsgrad: False
[2022-05-07 17:28:32]     betas: (0.9, 0.999)
[2022-05-07 17:28:32]     eps: 1e-08
[2022-05-07 17:28:32]     lr: 0.0005
[2022-05-07 17:28:32]     maximize: False
[2022-05-07 17:28:32]     weight_decay: 0.01
[2022-05-07 17:28:32] )
[2022-05-07 17:28:32] Crnn(
[2022-05-07 17:28:32]   (conv): Sequential(
[2022-05-07 17:28:32]     (0): BatchNorm2d(1, eps=1e-05, momentum=0.1, affine=True, track_running_stats=True)
[2022-05-07 17:28:32]     (1): Conv2d(1, 16, kernel_size=(9, 9), stride=(1, 1), padding=(4, 4))
[2022-05-07 17:28:32]     (2): BatchNorm2d(16, eps=1e-05, momentum=0.1, affine=True, track_running_stats=True)
[2022-05-07 17:28:32]     (3): GELU()
[2022-05-07 17:28:32]     (4): MaxPool2d(kernel_size=(1, 2), stride=(1, 2), padding=0, dilation=1, ceil_mode=False)
[2022-05-07 17:28:32]     (5): Conv2d(16, 32, kernel_size=(9, 9), stride=(1, 1), padding=(4, 4))
[2022-05-07 17:28:32]     (6): BatchNorm2d(32, eps=1e-05, momentum=0.1, affine=True, track_running_stats=True)
[2022-05-07 17:28:32]     (7): GELU()
[2022-05-07 17:28:32]     (8): MaxPool2d(kernel_size=(1, 2), stride=(1, 2), padding=0, dilation=1, ceil_mode=False)
[2022-05-07 17:28:32]     (9): Conv2d(32, 64, kernel_size=(9, 9), stride=(1, 1), padding=(4, 4))
[2022-05-07 17:28:32]     (10): BatchNorm2d(64, eps=1e-05, momentum=0.1, affine=True, track_running_stats=True)
[2022-05-07 17:28:32]     (11): GELU()
[2022-05-07 17:28:32]     (12): MaxPool2d(kernel_size=(1, 2), stride=(1, 2), padding=0, dilation=1, ceil_mode=False)
[2022-05-07 17:28:32]     (13): Conv2d(64, 128, kernel_size=(9, 9), stride=(1, 1), padding=(4, 4))
[2022-05-07 17:28:32]     (14): BatchNorm2d(128, eps=1e-05, momentum=0.1, affine=True, track_running_stats=True)
[2022-05-07 17:28:32]     (15): GELU()
[2022-05-07 17:28:32]     (16): MaxPool2d(kernel_size=(1, 2), stride=(1, 2), padding=0, dilation=1, ceil_mode=False)
[2022-05-07 17:28:32]     (17): Conv2d(128, 256, kernel_size=(9, 9), stride=(1, 1), padding=(4, 4))
[2022-05-07 17:28:32]     (18): BatchNorm2d(256, eps=1e-05, momentum=0.1, affine=True, track_running_stats=True)
[2022-05-07 17:28:32]     (19): GELU()
[2022-05-07 17:28:32]     (20): MaxPool2d(kernel_size=(1, 2), stride=(1, 2), padding=0, dilation=1, ceil_mode=False)
[2022-05-07 17:28:32]   )
[2022-05-07 17:28:32]   (gru): GRU(2048, 512, batch_first=True, bidirectional=True)
[2022-05-07 17:28:32]   (classifier): Sequential(
[2022-05-07 17:28:32]     (0): Linear(in_features=1024, out_features=10, bias=True)
[2022-05-07 17:28:32]     (1): Sigmoid()
[2022-05-07 17:28:32]   )
[2022-05-07 17:28:32] )
[2022-05-07 17:28:53] Epoch 1   training_loss: 0.38  val_loss: 0.35  precision: 0.19  recall: 0.06  f1: 0.09
[2022-05-07 17:29:13] Epoch 2   training_loss: 0.33  val_loss: 0.32  precision: 0.40  recall: 0.11  f1: 0.15
[2022-05-07 17:29:33] Epoch 3   training_loss: 0.30  val_loss: 0.28  precision: 0.49  recall: 0.21  f1: 0.26
…
