…
[2022-05-07 19:27:35] scheduler_args:
[2022-05-07 19:27:35]   factor: 0.1
[2022-05-07 19:27:35]   patience: 3
[2022-05-07 19:27:35] 
[2022-05-07 19:27:35] Running on device cuda
[2022-05-07 19:27:38] AdamW (
[2022-05-07 19:27:38] Parameter Group 0
[2022-05-07 19:27:38]     amsgrad: False
[2022-05-07 19:27:38]     betas: (0.9, 0.999)
[2022-05-07 19:27:38]     eps: 1e-08
[2022-05-07 19:27:38]     lr: 0.0005
[2022-05-07 19:27:38]     maximize: False
[2022-05-07 19:27:38]     weight_decay: 0.01
[2022-05-07 19:27:38] )
[2022-05-07 19:27:38] Crnn(
[2022-05-07 19:27:38]   (conv): Sequential(
[2022-05-07 19:27:38]     (0): BatchNorm2d(1, eps=1e-05, momentum=0.1, affine=True, track_running_stats=True)
[2022-05-07 19:27:38]     (1): Conv2d(1, 16, kernel_size=(9, 9), stride=(1, 1), padding=(4, 4))
[2022-05-07 19:27:38]     (2): BatchNorm2d(16, eps=1e-05, momentum=0.1, affine=True, track_running_stats=True)
[2022-05-07 19:27:38]     (3): GELU()
[2022-05-07 19:27:38]     (4): MaxPool2d(kernel_size=(1, 2), stride=(1, 2), padding=0, dilation=1, ceil_mode=False)
[2022-05-07 19:27:38]     (5): Conv2d(16, 32, kernel_size=(9, 9), stride=(1, 1), padding=(4, 4))
[2022-05-07 19:27:38]     (6): BatchNorm2d(32, eps=1e-05, momentum=0.1, affine=True, track_running_stats=True)
[2022-05-07 19:27:38]     (7): GELU()
[2022-05-07 19:27:38]     (8): MaxPool2d(kernel_size=(1, 2), stride=(1, 2), padding=0, dilation=1, ceil_mode=False)
[2022-05-07 19:27:38]     (9): Conv2d(32, 64, kernel_size=(9, 9), stride=(1, 1), padding=(4, 4))
[2022-05-07 19:27:38]     (10): BatchNorm2d(64, eps=1e-05, momentum=0.1, affine=True, track_running_stats=True)
[2022-05-07 19:27:38]     (11): GELU()
[2022-05-07 19:27:38]     (12): MaxPool2d(kernel_size=(1, 2), stride=(1, 2), padding=0, dilation=1, ceil_mode=False)
[2022-05-07 19:27:38]     (13): Conv2d(64, 128, kernel_size=(9, 9), stride=(1, 1), padding=(4, 4))
[2022-05-07 19:27:38]     (14): BatchNorm2d(128, eps=1e-05, momentum=0.1, affine=True, track_running_stats=True)
[2022-05-07 19:27:38]     (15): GELU()
[2022-05-07 19:27:38]     (16): MaxPool2d(kernel_size=(1, 2), stride=(1, 2), padding=0, dilation=1, ceil_mode=False)
[2022-05-07 19:27:38]     (17): Conv2d(128, 256, kernel_size=(9, 9), stride=(1, 1), padding=(4, 4))
[2022-05-07 19:27:38]     (18): BatchNorm2d(256, eps=1e-05, momentum=0.1, affine=True, track_running_stats=True)
[2022-05-07 19:27:38]     (19): GELU()
[2022-05-07 19:27:38]     (20): MaxPool2d(kernel_size=(1, 2), stride=(1, 2), padding=0, dilation=1, ceil_mode=False)
[2022-05-07 19:27:38]   )
[2022-05-07 19:27:38]   (gru): GRU(2048, 512, num_layers=3, batch_first=True, bidirectional=True)
[2022-05-07 19:27:38]   (classifier): Sequential(
[2022-05-07 19:27:38]     (0): Linear(in_features=1024, out_features=10, bias=True)
[2022-05-07 19:27:38]     (1): Sigmoid()
[2022-05-07 19:27:38]   )
[2022-05-07 19:27:38] )
[2022-05-07 19:27:50] Epoch 1   training_loss: 0.40  val_loss: 0.36  precision: 0.07  recall: 0.01  f1: 0.02
[2022-05-07 19:28:02] Epoch 2   training_loss: 0.35  val_loss: 0.34  precision: 0.12  recall: 0.01  f1: 0.02
[2022-05-07 19:28:14] Epoch 3   training_loss: 0.33  val_loss: 0.31  precision: 0.22  recall: 0.15  f1: 0.18
…
